…
tion":{"iopub.status.busy":"2024-04-10T20:34:44.146010Z","iopub.execute_input":"2024-04-10T20:34:44.146349Z","iopub.status.idle":"2024-04-10T20:34:44.178866Z","shell.execute_reply.started":"2024-04-10T20:34:44.146304Z","shell.execute_reply":"2024-04-10T20:34:44.177948Z"},"trusted":true},"execution_count":22,"outputs":[{"name":"stdout","text":"Model: \"sequential_6\"\n_________________________________________________________________\n Layer (type)                Output Shape              Param #   \n=================================================================\n flatten_6 (Flatten)         (None, 53)                0         \n                                                                 \n dense_50 (Dense)            (None, 100)               5400      \n                                                                 \n dense_51 (Dense)            (None, 100)               10100     \n                                                                 \n dense_52 (Dense)            (None, 100)               10100     \n                                                                 \n dense_53 (Dense)            (None, 100)               10100     \n                                                                 \n dense_54 (Dense)            (None, 100)               10100     \n                                                                 \n dense_55 (Dense)            (None, 100)               10100     \n                                                                 \n dense_56 (Dense)            (None, 100)               10100     \n                                                                 \n dense_57 (Dense)            (None, 100)               10100     \n                                                                 \n dense_58 (Dense)            (None, 10)                1010      \n                                                                 \n=================================================================\nTotal params: 77110 (301.21 KB)\nTrainable params: 77110 (301.21 KB)\nNon-trainable params: 0 (0.00 Byte)\n_________________________________________________________________\n","output_type":"stream"}]},{"cell_type":"code","source":"columns_to_use = ['avgouts
…
