…
history list.\nhistory_cnn = cnn.fit(x_train.head(25000), y_train.head(25000), batch_size=128, epochs=4, validation_data=(x_valid, y_valid))","metadata":{"execution":{"iopub.status.busy":"2024-04-30T20:53:54.974008Z","iopub.execute_input":"2024-04-30T20:53:54.974457Z"},"trusted":true},"execution_count":null,"outputs":[{"name":"stdout","text":"Model: \"sequential_2\"\n_________________________________________________________________\n Layer (type)                Output Shape              Param #   \n=================================================================\n conv1d_8 (Conv1D)           (None, 53, 256)           5632      \n                                                                 \n conv1d_9 (Conv1D)           (None, 53, 256)           1114368   \n                                                                 \n max_pooling1d_4 (MaxPoolin  (None, 53, 256)           0         \n g1D)                                                            \n                                                                 \n dropout_2 (Dropout)         (None, 53, 256)           0         \n                                                                 \n conv1d_10 (Conv1D)          (None, 53, 256)           1114368   \n                                                                 \n conv1d_11 (Conv1D)          (None, 53, 512)           1573376   \n                                                                 \n max_pooling1d_5 (MaxPoolin  (None, 53, 512)           0         \n g1D)                                                            \n                                                                 \n flatten_2 (Flatten)         (None, 27136)             0         \n                                                                 \n dense_4 (Dense)             (None, 1024)              27788288  \n                                                                 \n dense_5 (Dense)             (None, 1)                 1025      \n                                                                 \n=================================================================\nTotal params: 31597057 (120.53 MB)\nTrainable params: 31597057 (120.53 MB)\nNon-trainable params: 0 (0.00 Byte)\n_________________________________________________________________\nEpoch 1/4\n196/196 [==============================] - 38s 186ms/step - loss: 0
…
